Assignment 3/examples/00_quick_start/foodpredict_model.pkl (torch_old, 205681 bytes, 4 tensors)

weight f4 [1000, 40]
00000000: cdf1 113a 8474 143b 8622 f338 532e 6cbb
00000010: e719 c5bb 23c7 35ba bfaf 603b 9551 173c
00000020: 0dc7 473a 2764 803c d792 ec3b 26e2 d13b
00000030: cd2c b43b 9879 6f3c 5495 daba ec40 8cbb
00000040: 6aaf 98bb d98c 963b 8ccf b6bb 24c8 1dbc
00000050: 0718 003c baa4 183b c341 893b 41fb 13bc
00000060: 1da5 933b f253 08bb b2f9 9a3b 318c 28ba
00000070: e938 373c 53a6 f03b fdc1 ea3b 033c bcba
00000080: 335c 213b 5b9e 08bb 942a 8b3b 29e6 7eba
00000090: 4ca6 eb3b eeb8 c938 d079 3bbb a9c6 423c
000000a0: bd5c d33d c47d da3d d390 503d c4ac b1bd
000000b0: f0ed 8c3d 7231 b13d ef18 e13c 5f1e eebd
000000c0: 436b 17be 036e 49bd ac47 3dbd 4dcd 26be
000000d0: d9c3 1abe 191c 39bd 6097 6d3e f1fc 4fba
000000e0: 9a54 6dbe 605b 433d 7459 1d3c cf8b 813d
000000f0: 897a 26be 673a 253d 4f1d 623e 642b 71be
00000100: c68f 33be c33e 09be 9d9c 84bd 4e5a 883d
00000110: fcbe b2bb 277a 81be 0307 773e 41e5 e6bd
00000120: 1c55 c93d 175d 263e d6cf f63d 26dd ff3c
00000130: dd7f 08be 59a2 b53d 6446 cdbd d26b eabd
00000140: 72be c5bc 18de c8bd 5bbb 733d 1efd 94bd
00000150: 8c6d 793e 95f5 803c aeb6 9fbc 3486 0a3e
00000160: 7913 16bd 3c86 3dbd e43c f1bd 140f 68be
00000170: e7fa 463a c2be 1f3e 1f64 1e3e 3ca4 58bd
00000180: 7033 51be 63de 80bc 4b82 10bc 88f7 2d3c
00000190: f5f0 45be 82ec d53d 9931 d8bd a034 89be
000001a0: 6f6c cc3a f43a 03be 3d5a 123e 06f5 f0bc
000001b0: 9004 05be cf04 babe d88c dd3d a70d 4fbe
000001c0: b684 0cbc 96f4 453e 535f 823e 07d7 b73b
000001d0: 6f7c 07be c7a8 423e 5e66 68bd 4624 afbd
000001e0: 6da9 cc3d 63ef b83d 5716 d43d 04bd d4bb
000001f0: 1465 cabd 4872 bfbd 90e3 d1bd f02f c1bd
00000200: b4f4 b7bd 6963 cebd a95c ecbd 3267 af3d
00000210: 483f e3bd 827a d8bd 4401 d43d 2cdd e6bd
00000220: 155a d83d 1bf7 eabd 128d bb3d ff24 e73d
00000230: aff0 a13d 0748 d93d 6b65 873d 80b7 bdbd
00000240: 81c3 dfbd 4ed3 ac3c fa04 efbd 00ed cf3d
00000250: 4929 bc3d edd9 e3bd d284 c2bd d201 cc3d
00000260: e4cf b4bd c323 8cbd 5a77 a93d c4db bbbd
00000270: 6d23 edbd 3244 b5bd 5fb3 c3bd 636e b13d
00000280: c38d dfbd 28b2 043e e12c d0bd cdc1 ea3d
00000290: b533 64bd 617b cb3d 2a8e b23d a30f be3d
000002a0: e729 dfbd 7618 b73d 013d 0abe c6cd c7bd
000002b0: b113 a83d 2bba db3d a092 d6bd a76a 023e
000002c0: 003f dabd 0d84 c93d 672b ccbd f576 e83d
000002d0: 4dad dc3d c2a5 55bc 5552 9f3d f9c7 a33d
000002e0: fd52 de3d 4003 fcbd 9605 dabd 2298 8e3d
000002f0: 94b4 ea3d 6d48 9f3d 8775 9abd 230b c73d
00000300: bf0d 00be 5c4d c03d 54fd 86bd ee50 623d
00000310: fbfa adbd 2221 b23d 72d5 c83d abeb aa3d
00000320: 214a f2bd a035 85bb fbac 8b3b f0e4 3a3e
00000330: d5ae 53bc 0285 a03d dfea d1bc 4514 813e
00000340: d569 9abe fdd5 42be b62e 48be b199 83be
00000350: cfe0 aa3d 82aa 913e 02c3 42be 41cc 013e
00000360: 01e7 b8be 7a9f 48bd 157c 4abe f30d 893d
00000370: 31de 443d 50c2 4abe 149b 9a3b bf4d 34bd
00000380: be67 953c bb4a f8bc 89ff d1bd 92d6 643d
00000390: 183a 8c3e a110 7ebb 897a a73c 3b58 573e
000003a0: bc53 5bbe b2bb a13d 8b02 e5bd 0ddd 4a3d
000003b0: 21c6 a1bd 540a 803e 5197 183e f5e4 f03c
000003c0: a27a a63d 8423 1bbc 3a20 3b3d 2fc1 6dbd
000003d0: 9cb0 ee3d 2950 adbd 290b 43bd 35f0 aa3d
000003e0: 79ba 52be d03d 94bd 4a8c 8d3d 3494 15be
000003f0: 17b2 cfbb d8fa 053e 6034 e73d 8f69 98bd
0.0005567342 0.0022652457 0.000115935734 -0.0036038354 -0.0060150507 -0.0006934276 0.003428444 0.009235759
0.00076209084 0.015672756 0.007219653 0.006405133 0.0054985047 0.014616393 -0.0016676583 -0.0042802
-0.004659583 0.004594427 -0.0055789407 -0.009630237 0.007818229 0.0023291544 0.0041887476 -0.009032072
0.004505767 -0.0020801988 0.004729473 -0.00064295816 0.011183002 0.007344046 0.0071642385 -0.0014361147
0.0024621605 -0.002084634 0.004247019 -0.00097236276 0.007191455 9.618873e-05 -0.0028606541 0.011888185
0.10320423 0.10668519 0.050919365 -0.086755306 0.068813205 0.08652009 0.02747771 -0.116268866
-0.14787011 -0.04917718 -0.04621093 -0.16289254 -0.15113772 -0.04519281 0.23202276 -0.00079341145
-0.23176804 0.047694564 0.009603847 0.063254945 -0.16257681 0.0403389 0.22081493 -0.23551708
-0.17535314 -0.13402848 -0.06475184 0.06657849 -0.005454896 -0.25288507 0.24123769 -0.112741955
0.098306865 0.16246448 0.1205136 0.031233381 -0.13330026 0.08868856 -0.100231916 -0.11446346
-0.024138663 -0.09807986 0.059504848 -0.07274841 0.24358195 0.015742103 -0.019496288 0.13527757
-0.036639664 -0.046270594 -0.11779192 -0.22662002 0.0007590488 0.15600112 0.1546788 -0.052891
-0.20429778 -0.015731042 -0.008820127 0.010618098 -0.19330199 0.10445501 -0.10556335 -0.26797962
0.001559628 -0.12815458 0.14292236 -0.029413711 -0.12990022 -0.36331794 0.108178794 -0.20220052
-0.008576563 0.19331583 0.25463352 0.00561035 -0.13231061 0.19009696 -0.05673825 -0.085518405
0.09993253 0.090300344 0.103558235 -0.006492259 -0.0988256 -0.09347969 -0.10248482 -0.094329715
-0.0898222 -0.10077555 -0.11541111 0.08564605 -0.11096054 -0.105702415 0.10351804 -0.11272654
0.10564057 -0.11472913 0.091577664 0.11286353 0.07907235 0.10609441 0.06611141 -0.092635155
-0.10925961 0.021096852 -0.11670871 0.10152626 0.09187562 -0.111255504 -0.0949799 0.09961285
-0.088287145 -0.068427585 0.08274718 -0.09172776 -0.115790226 -0.08850898 -0.09555697 0.08663633
-0.10915711 0.12958586 -0.1016481 0.11462746 -0.055713374 0.09935642 0.08718522 0.09280326
-0.10896664 0.089402124 -0.13499834 -0.09756045 0.08206881 0.10728868 -0.10477185 0.12735997
-0.106565475 0.0983964 -0.09969216 0.11350814 0.10775242 -0.013040008 0.077793755 0.07997126
0.108556725 -0.123053074 -0.10645597 0.06962611 0.11460224 0.07777486 -0.07541948 0.09718921
-0.12505244 0.09389755 -0.06591287 0.05525296 -0.08495136 0.08697726 0.098063365 0.08345731
-0.11830545 -0.0040652305 0.0042625642 0.18251395 -0.012920101 0.07837869 -0.02562469 0.25210777
-0.30158868 -0.19026943 -0.19549069 -0.25703195 0.0834366 0.284504 -0.19019702 0.12675573
-0.36113742 -0.048980214 -0.19773896 0.06692114 0.04806346 -0.19800687 0.004718194 -0.044019457
0.018237945 -0.030309072 -0.102538176 0.055868693 0.27388072 -0.0038767236 0.020444172 0.21029751
-0.21418661 0.07897128 -0.11182126 0.049527217 -0.07899118 0.2500788 0.14901473 0.02940605
0.08128859 -0.009468917 0.04568503 -0.058045562 0.11654779 -0.08462555 -0.047618065 0.08346597
-0.20578946 -0.07238352 0.06911524 -0.14607316 -0.0063383686 0.1308397 0.112892866 -0.07442009

weight f4 [31, 40]
00000000: 9923 48bc a03c 373c 3fd4 013c fc03 8d3a
00000010: 8349 763a 0617 0dbb 47b6 e7bb 47d8 8cbb
00000020: eb26 45bc 1069 1abc 0212 2a3b bef0 993a
00000030: 398d 9e3b fab6 babb ef4b 11bc 58d2 213c
00000040: c5c0 e4bb 29f4 4d3b edb3 96bb 5aff 64bb
00000050: f2df 5cbb 1861 713b 0f7e 0abc fe7c 133c
00000060: abca 88bb 18bb 34bc a516 25bc 02a2 bbbb
00000070: 3e92 3a3c 3107 a1bb 3348 283c d0b3 bfbb
00000080: 3347 4b3b 42dd 103b 832f 16bb d548 313b
00000090: da56 21bc 7c1c 883a 4f0a ef3b 32b6 9abb
000000a0: c2d3 593e 721e 0fbc cca7 273e 2fab 4dbe
000000b0: a67f 93bd 3e09 e6be 5669 06bf fd1f aebe
000000c0: 1443 71be b580 d6be bb36 85be a936 c63e
000000d0: a005 99bd 1f43 a73e bbe5 a6bd e813 173d
000000e0: 1b3c b4be 9fcf a8be 817d d2bd 6bc7 7a3e
000000f0: 32ce bc3e 0590 e0bd 177c 9a3e 13f3 91bd
00000100: 8c73 493e 5695 103c 65ed f23d c4c2 a3be
00000110: 57e7 0c3f e60a 163e 4f2d 823e f36d d6bd
00000120: 56fc a63e 05e6 48be b27f 00bd e39a 91be
00000130: 510c c53e 8cc3 523e 6e27 55be d72c 853e
00000140: 5d8b 0abf 8355 e6be 3dae 81be 8f9e 853d
00000150: 0032 d73e 392c 6e3e b975 8e3e 632d 8fbd
00000160: 55c1 4e3e feba 2bbd 0f1d ccbe eb70 1cbe
00000170: a452 9c3e e7b6 f03e 4c19 96bd efa6 d53e
00000180: dc6b 8cbe 461b 853d b5a4 9a3d 2c34 86be
00000190: 7d9d a83d 946e b23e 92c4 fcbe 4e9a 7fbe
000001a0: 1107 b73e e1ac 93be d694 8fbd a6fd 08bd
000001b0: 2b93 02bf 12ac 3b3d e6f2 a1be ae75 0dbf
000001c0: 3f9b dfbe bf8f 6f3e a5a2 5e3d 2a9e e5be
000001d0: 68f7 9b3e 8adf 003e 8cb7 e9bd f079 a63d
000001e0: f182 18bf e397 8abe ce29 2a3f 3938 ac3e
000001f0: 646c edbe 8de9 91be 5f0e cebe b215 3fbe
00000200: e934 c6bd 847b 013e 9f83 0a3f 1508 d8be
00000210: 66e3 ac3d 1d31 98bd 68df 523d 9fd2 e0be
00000220: e2b8 e1be 90f5 e03e f5f0 e23e fcec f43a
00000230: 6f46 5d3e c377 823e 1ad3 0ebf 58e2 8ebe
00000240: c32b 063f c7da 31be f34b 013f 0d0b aebd
00000250: c94f 6ebe 9466 48bd 4caf 743c e777 a63c
00000260: dde9 183e 6177 5f3e 51f0 b43e 9d82 323e
00000270: 74b2 883e 6d19 efbd 6015 42bd 394f babe
00000280: 5acd 35be e712 a03e 052f 25bf 356d 223f
00000290: a98c 7dbe 790f f83e daeb f23e d6ad f7bd
000002a0: db57 fb3e 65e4 be3d 13d5 1d3f 91ce ab3e
000002b0: 0d0d dd3e 92ad d3bd 7041 2e3e aabc fdbc
000002c0: dd51 cb3d 35e0 ae3e b49a 14bf 5de1 82bd
000002d0: f48c b03d 019f 4fbe 4271 b1bd 4330 ad3d
000002e0: 186a af3e 20e5 d53e d941 943e 997e d43e
000002f0: b58c a13e b557 4bbd 6a30 c1be 14f7 803e
00000300: 1e91 953e 1dec 9bbd b568 d2be 1921 c6be
00000310: 7112 48be a984 063e 0125 a1be b147 063e
00000320: 9395 debe 571d 023f e104 0abe fc3c ba3e
00000330: 52c7 863e 929f 053e 5ef8 bb3b 5ff6 ecbe
00000340: 9d88 573e 73f5 b33c a573 80be 47e3 e3be
00000350: 1df1 8abe b93b b43e e6ee 003f 14c2 3e3e
00000360: f30d b9be 6cab cebd 275d c23e 8a36 e7be
00000370: bd74 2dbe 6a04 5ebe 9b06 43be 2160 a5be
00000380: abb9 fd3e bb56 e0be 1b8b 94be 0a61 cebd
00000390: 9c22 b23e a0c9 7bbe 6d8b 45be 4584 11bf
000003a0: 03e0 0fbe 8dbb b4be 8629 cd3e eeb8 7fbe
000003b0: 6386 143e 963c a43e 1ac3 bb3e 1077 83be
000003c0: 8f9d 3e3d 5675 55be 1804 d63e bfd0 0d3e
000003d0: 97cb 58be 78d4 6d3c d122 98be 1491 f73d
000003e0: 576b d63e 0615 fb3e 77b6 fd3d e7a3 42be
000003f0: d6dd f1be d067 a6be bd3e b73e 925f d0bd
-0.012215518 0.011183888 0.007924139 0.0010758634 0.00093951094 -0.0021528616 -0.0070712897 -0.004298243
-0.012033205 -0.009424463 0.0025950675 0.001174472 0.0048386124 -0.005698082 -0.008868202 0.00987681
-0.0069809877 0.0031426048 -0.0045990855 -0.003494224 -0.0033702818 0.0036831554 -0.008452906 0.009001968
-0.0041745505 -0.011030935 -0.0100762 -0.0057261 0.011387406 -0.0049141874 0.01027112 -0.0058502927
0.003101778 0.0022104536 -0.0022916503 0.0027051468 -0.009847367 0.0010384466 0.00729493 -0.0047214264
0.21272185 -0.008735286 0.16372603 -0.20084833 -0.072020814 -0.44928926 -0.5250448 -0.3400878
-0.23560745 -0.4189507 -0.2601832 0.38713577 -0.07471776 0.32668397 -0.08149286 0.03688422
-0.35202107 -0.32970902 -0.10277844 0.24490134 0.36876065 -0.109649695 0.30172798 -0.07126441
0.19672984 0.008824667 0.11861686 -0.31984532 0.55040497 0.14652595 0.25425193 -0.1047019
0.32614392 -0.19618995 -0.03137178 -0.28438482 0.3848596 0.20582408 -0.20815822 0.26010773
-0.541189 -0.44987115 -0.25328246 0.06524383 0.42030334 0.23259057 0.2782419 -0.06991079
0.20190938 -0.041926377 -0.3986592 -0.1527745 0.305318 0.47014543 -0.07329044 0.41728923
-0.2742604 0.064993426 0.075509466 -0.2621168 0.082331635 0.3484999 -0.4936872 -0.24961206
0.3574758 -0.28842834 -0.0701081 -0.033445023 -0.5100581 0.045818396 -0.3163063 -0.5525769
-0.4367313 0.23394679 0.05435433 -0.44847232 0.30462193 0.12585273 -0.11411962 0.081287265
-0.595748 -0.27069005 0.6647004 0.33636644 -0.46371758 -0.28498498 -0.4024534 -0.1866062
-0.096780606 0.12644774 0.5410709 -0.42193666 0.0844181 -0.074312426 0.051482588 -0.4391069
-0.44086367 0.4393735 0.4432446 0.001868635 0.216089 0.25481996 -0.55790865 -0.27907062
0.52410525 -0.17368613 0.50506514 -0.084982015 -0.23272623 -0.04892595 0.014934372 0.020320846
0.14932962 0.21822883 0.35339597 0.17432638 0.2669865 -0.116747715 -0.047383666 -0.36388567
-0.17754117 0.3126442 -0.6452487 0.63447887 -0.24760689 0.48449305 0.47445565 -0.120937034
0.49090466 0.093209065 0.6165325 0.33556035 0.4317402 -0.1033584 0.1701715 -0.030973751
0.099277236 0.3415543 -0.5804856 -0.06390641 0.08620635 -0.20275499 -0.0866418 0.08456471
0.3426063 0.4177637 0.28956488 0.41502836 0.31552663 -0.04964419 -0.3773225 0.25188506
0.29212278 -0.076133944 -0.4109551 -0.38697127 -0.19538285 0.13136543 -0.31473544 0.13113286
-0.4347349 0.5082602 -0.13478424 0.36374652 0.26323944 0.13049152 0.005736395 -0.46281716
0.21048208 0.021967625 -0.2508823 -0.44509336 -0.2713708 0.35201815 0.5036453 0.18628722
-0.36143455 -0.1009129 0.37961695 -0.45158798 -0.16939063 -0.21681371 -0.19045489 -0.32299903
0.49555716 -0.4381617 -0.2901238 -0.100771025 0.3479203 -0.24588633 -0.19291468 -0.5684245
-0.14050297 -0.3529934 0.40070742 -0.24972889 0.1450439 0.32077473 0.36672288 -0.25676775
0.04653698 -0.20845541 0.41799998 0.13849162 -0.21171413 0.0145159885 -0.29714063 0.12088218
0.4187877 0.49039477 0.12388318 -0.19007836 -0.4723956 -0.32501078 0.35790053 -0.101744786

weight f4 [1000, 1]
00000000: d9b7 37ba 8f5f 5d3e 530d 8d3b 5a9f c33d
00000010: 5177 bbbd 4514 54bd b917 bc3d af76 0fbe
00000020: 07cc 6c3d eaef b53d 439b 8cbc 3fdd 1d3e
00000030: ae39 1d3e be4a 8b3d a9c5 18bd 0e47 d43d
00000040: 3c66 d83d 4d44 833d 6124 073e 601d 72bd
00000050: 5464 b33d 6bb2 e33c 34ec 2cbd 5c3b efbc
00000060: 0427 82bd 0acd 1d3e be65 363d 74b2 b4bd
00000070: df0c 983c 3c90 f6bd b5ba 623d d495 463c
00000080: 1daa fb3d d29c bc3d b2a6 003e bda4 033e
00000090: 9e62 143d 162a 8bb7 55f2 fd3d b82b d4bd
000000a0: 2296 28bc 53f1 e7bd 8116 59bd 47ba 19be
000000b0: 7136 75bd 862c 483e 3f85 b63d d5f9 a93d
000000c0: 0cb5 013e 6793 d73d c9d6 04be 852a 093d
000000d0: c60f 89bc 7145 20be 0a2e b43c 9866 bb3d
000000e0: ecc1 ac3d b72d 04be e518 ec3b 1118 02be
000000f0: 7bec 6f3d ae4b 1f3d 81c4 ebbd 9382 0a3e
00000100: 4329 3a3e 2793 b43d 8d08 a13c 43b0 923c
00000110: c2a2 153d 7783 973d 5e46 3b3d cf72 613b
00000120: ebb8 d03b e9db 0fbd 4dd3 9c3d 0977 d7bd
00000130: ad57 023d ab68 563d e476 9cbd f9ef 553d
00000140: 4691 a0bc cf4a 01be 447d 90bd 7927 8b3d
00000150: fddf c33d 65d1 acbc e4ea 9b3d d272 843d
00000160: e0b8 013e 255f 223e b8eb 883d 13a9 813e
00000170: 33b2 763d bf34 163d bfdb 69bd e594 7cbd
00000180: 40b1 61bd 2f45 4e3d 77dc e0bd c875 73bd
00000190: 0da9 95bd 6bc7 943d 9e9f 463e ed7c 023e
000001a0: 2718 c4bd 457d 0d3e ba3c 9f3d 811b de3d
000001b0: c135 393d 7320 a9bd dd25 693d fc67 8a3d
000001c0: b751 abbd 09e7 433d 5917 89bc 685d c23c
000001d0: 3d40 d43d 11f5 393e 802c aa3d b0fe 5c3d
000001e0: 6c34 a93c 1496 4ebb e989 ccbd fb19 a3bd
000001f0: 0bdf 0b3e 2ee4 a9bd 2886 37bd 4e62 a2bc
00000200: 8d0e 063d 4772 c83d 913c 813d 5a06 ddbd
00000210: 4aab f6bc a02e 073c eb90 683d 7946 55bd
00000220: b650 26bd c887 81bd 91c3 2c3e 790e 31be
00000230: 7f9b f8bd faae 14bb 8003 593e 5573 653e
00000240: 9414 5fbd 0d07 82bd d98a 98bd d519 25be
00000250: 62b9 48bb 0af4 463c 54a5 4e3c a4e6 463e
00000260: f109 323e 18d1 f73d cfcc 283b 7cb5 643b
00000270: 2ebd 08bd bba4 443e 5446 533e 8a7a 83bd
00000280: 580d 033e ceab 1c3d 6eab 66bd 24ff 213e
00000290: 6456 c7bc 85b4 133e 1905 623d a3f2 b5bd
000002a0: 902b b1bc f2db 403c 69f6 313d abea 023e
000002b0: 5027 fe3c 7fc1 8dbd ccf4 6abc bec5 ff3d
000002c0: 86f4 bebd fe11 df3c c8bc 0abe bc4d ea3d
000002d0: 61ba 43be 1718 ddbc 45a9 083e e786 e03d
000002e0: fabe 4e3d 3157 d43d 0ffb d23d eb58 863d
000002f0: 3d09 e63c 7e0f 0b3d 7da6 68bc 9e47 ac3d
00000300: 9b6c 683d 1157 623d 3d08 b4bd 9054 3c3d
00000310: 5a0f 733d 3faf ae3b b27f 353e 7f09 3b3e
00000320: d023 abbc 2dab 1f3d 9791 eb3d 1e0a e33d
00000330: eea4 63bd 392b e0bd 2da5 a43c 22b3 1ebe
00000340: 4776 f73c 15b2 563d 1e5d afbd 2084 86bd
00000350: 51ff 4dbd c7b9 c3bd 07e7 ea3d 9fea 94bd
00000360: 5b3a 523e 3854 ffbd 72ec dc3d af83 1b3e
00000370: 22e4 333e 62be c53d c021 89bc 340b 423d
00000380: 8779 f83c 8ce6 60bc 4998 0bbe 059c 0a3e
00000390: 5011 d93d 77a0 c73d 6234 a53d 9e16 4abd
000003a0: 7a0a 11be 029d 96bd 2c2c 273e 4c47 b7bd
000003b0: cbe0 4ebe daed a33d 397a d23d 0abc e0bd
000003c0: 6a31 433c fc37 f63b b1dc 92bd 5da5 923d
000003d0: 34ff 91bd da53 6f3d 09d0 23bd 9e43 2e3e
000003e0: 23f8 29bc db4e 09bd e18d 093e 1b7e 4f3e
000003f0: 9d41 8a3c 3e72 c5bd df36 3d3e 007e 8b3d
-0.00070082914 0.21618484 0.004304567 0.09551878 -0.09153617 -0.051777143 0.09184212 -0.14010118
0.057811763 0.088836506 -0.017163878 0.1541643 0.15354034 0.06801365 -0.03729788 0.10365115
0.10566375 0.06409512 0.13197471 -0.059110045 0.087593704 0.027795037 -0.04221745 -0.02920311
-0.06355098 0.15410247 0.044530623 -0.088231 0.018560825 -0.12039229 0.05535384 0.012120683
0.12288306 0.092095986 0.12563589 0.12855811 0.03622686 -1.6589689e-05 0.12399737 -0.10359901
-0.010289701 -0.11325326 -0.052999977 -0.15012465 -0.059866372 0.19548234 0.089121334 0.08299605
0.1266672 0.10526162 -0.12972559 0.033487815 -0.016731154 -0.1565149 0.02199461 0.091504276
0.08435425 -0.12908064 0.007205116 -0.12704493 0.058575135 0.038890533 -0.115120895 0.13526373
0.18179803 0.088171296 0.019657398 0.017906314 0.03653217 0.07398122 0.045721404 0.0034400707
0.0063697 -0.035121832 0.0765749 -0.10520751 0.031821895 0.052345913 -0.07639864 0.05223081
-0.019600522 -0.12626193 -0.070551425 0.06794638 0.09564207 -0.02109594 0.07613161 0.06467213
0.1266818 0.15856607 0.06685585 0.25324306 0.060228538 0.036671396 -0.05709433 -0.061665434
-0.05510068 0.050358947 -0.1097955 -0.059438497 -0.073076345 0.072645985 0.19396827 0.12742968
-0.09574919 0.13817318 0.077752545 0.1084509 0.04521728 -0.08258142 0.056920875 0.06758115
-0.08365195 0.047827754 -0.016734766 0.02372618 0.10363815 0.18159892 0.08309269 0.053953826
0.02065488 -0.003152256 -0.09987242 -0.0796394 0.13659303 -0.08295475 -0.044805676 -0.019822266
0.03272872 0.09787422 0.0631038 -0.10792227 -0.030110974 0.008250862 0.05677883 -0.05206916
-0.040604316 -0.06324726 0.16871478 -0.17290677 -0.121390335 -0.0022687302 0.21192741 0.22407277
-0.054462984 -0.06349001 -0.07448358 -0.16123135 -0.0030628075 0.012143144 0.0126126595 0.1942392
0.17386605 0.12100428 0.002575684 0.0034898212 -0.03338354 0.19203465 0.20632297 -0.06419857
0.12798059 0.038249783 -0.05631583 0.15819985 -0.024333186 0.14424331 0.055180643 -0.0888417
-0.021627218 0.011771189 0.043447886 0.12784831 0.031024605 -0.06921672 -0.014340591 0.12488888
-0.09323983 0.027230259 -0.13548577 0.11440608 -0.19114067 -0.026989026 0.13345821 0.109632306
0.0504751 0.10368193 0.10301792 0.065599285 0.028080577 0.03395032 -0.01419985 0.084120974
0.0567442 0.055258814 -0.08790634 0.045979083 0.059340812 0.0053309496 0.17724493 0.18265341
-0.0208911 0.038981605 0.115023784 0.11085914 -0.05557721 -0.10945744 0.020098293 -0.15498021
0.030207766 0.052415926 -0.085626826 -0.065681696 -0.050292317 -0.095569186 0.11469846 -0.07271313
0.20530073 -0.12467235 0.10787286 0.15186952 0.17567495 0.09655453 -0.016739726 0.047373965
0.030331386 -0.013726842 -0.13632311 0.13536079 0.10599005 0.09747403 0.08066632 -0.049337976
-0.14164153 -0.073541656 0.16325444 -0.08949146 -0.20202939 0.08004351 0.10277218 -0.109733656
0.011913637 0.007513998 -0.07171 0.07160447 -0.07128754 0.058429576 -0.03999332 0.17017981
-0.010374102 -0.033522468 0.13433029 0.20262949 0.01687699 -0.096409306 0.18477963 0.06811142

weight f4 [31, 1]
00000000: a1db 8fbb db4a 653d 4d8a 0f3e 6194 8e3d
00000010: 42e6 213e fe78 083e 7ae3 173e 40ce c13d
00000020: 2736 db3d f114 253e a3ae 1a3e c6da 4a3e
00000030: 8f78 363e d0b6 9d3d e538 213e 4557 0b3e
00000040: 9899 173e d43b a63d 0da1 243e e331 a73d
00000050: 24a7 063e f2f5 243e 7d39 063e ffd1 513e
00000060: 8ba7 ee3d 9c2c b03d 723a 243e bbe4 fe3d
00000070: 71b2 043e e3ca 293e 7868 083e
-0.0043901955 0.05597959 0.14017601 0.06961895 0.15810493 0.13327405 0.14832869 0.09463167
0.10703688 0.1612127 0.15105681 0.19810018 0.17819427 0.07700884 0.1574436 0.1360751
0.14804685 0.0811688 0.16077061 0.08163812 0.13149697 0.16109446 0.13107868 0.20490263
0.1165305 0.086022586 0.1603792 0.124459706 0.12958695 0.16581301 0.13321102
